Model: "sequential"
_________________________________________________________________
 Layer (type)                Output Shape              Param #   
=================================================================
 conv2d (Conv2D)             (None, 98, 98, 32)        896       
                                                                 
 max_pooling2d (MaxPooling2D  (None, 49, 49, 32)       0         
 )                                                               
                                                                 
 conv2d_1 (Conv2D)           (None, 47, 47, 16)        4624      
                                                                 
 max_pooling2d_1 (MaxPooling  (None, 23, 23, 16)       0         
 2D)                                                             
                                                                 
 conv2d_2 (Conv2D)           (None, 21, 21, 16)        2320      
                                                                 
 max_pooling2d_2 (MaxPooling  (None, 10, 10, 16)       0         
 2D)                                                             
                                                                 
 flatten (Flatten)           (None, 1600)              0         
                                                                 
 dense (Dense)               (None, 128)               204928    
                                                                 
 dense_1 (Dense)             (None, 1)                 129       
                                                                 
=================================================================
Total params: 212,897
Trainable params: 212,897
Non-trainable params: 0
_________________________________________________________________
Epoch 1/15
  1/324 [..............................] - ETA: 21:58 - loss: 0.7032 - accuracy: 0.3438
…
