Num GPUs Available:  1
Num CPUs Available:  1
Num TPU Available:  0
Num Physical Devices Available:  2
Model: "sequential"
_________________________________________________________________
 Layer (type)                Output Shape              Param #   
=================================================================
 conv2d (Conv2D)             (None, 100, 100, 64)      1792      
                                                                 
 max_pooling2d (MaxPooling2D  (None, 50, 50, 64)       0         
 )                                                               
                                                                 
 conv2d_1 (Conv2D)           (None, 50, 50, 32)        18464     
                                                                 
 max_pooling2d_1 (MaxPooling  (None, 25, 25, 32)       0         
 2D)                                                             
                                                                 
 conv2d_2 (Conv2D)           (None, 25, 25, 64)        18496     
                                                                 
 max_pooling2d_2 (MaxPooling  (None, 12, 12, 64)       0         
 2D)                                                             
                                                                 
 conv2d_3 (Conv2D)           (None, 12, 12, 32)        18464     
                                                                 
 max_pooling2d_3 (MaxPooling  (None, 6, 6, 32)         0         
 2D)                                                             
                                                                 
 flatten (Flatten)           (None, 1152)              0         
                                                                 
 dense (Dense)               (None, 128)               147584    
                                                                 
 dense_1 (Dense)             (None, 1)                 129       
                                                                 
=================================================================
Total params: 204,929
Trainable params: 204,929
Non-trainable params: 0
_________________________________________________________________
Epoch 1/15
  1/324 [..............................] - ETA: 14:48 - loss: 0.6718 - accuracy: 0.7188 - precision: 0.0000e+0
…
